2022-12-09 22:06:34,961 - ===> loading train, validation and eval dataset
2022-12-09 22:06:35,738 - ### Model summary below###
 CDCK3(
  (encoder): Sequential(
    (0): Conv1d(1, 256, kernel_size=(8,), stride=(4,), padding=(2,), bias=False)
    (1): BatchNorm1d(256, eps=1e-05, momentum=0.1, affine=True, track_running_stats=True)
    (2): ReLU(inplace=True)
    (3): Conv1d(256, 256, kernel_size=(6,), stride=(2,), padding=(2,), bias=False)
    (4): BatchNorm1d(256, eps=1e-05, momentum=0.1, affine=True, track_running_stats=True)
    (5): ReLU(inplace=True)
    (6): Conv1d(256, 256, kernel_size=(4,), stride=(2,), padding=(1,), bias=False)
    (7): BatchNorm1d(256, eps=1e-05, momentum=0.1, affine=True, track_running_stats=True)
    (8): ReLU(inplace=True)
  )
  (gru1): GRU(256, 64, batch_first=True)
  (Wk1): ModuleList(
    (0): Linear(in_features=64, out_features=256, bias=True)
    (1): Linear(in_features=64, out_features=256, bias=True)
    (2): Linear(in_features=64, out_features=256, bias=True)
    (3): Linear(in_features=64, out_features=256, bias=True)
    (4): Linear(in_features=64, out_features=256, bias=True)
    (5): Linear(in_features=64, out_features=256, bias=True)
    (6): Linear(in_features=64, out_features=256, bias=True)
    (7): Linear(in_features=64, out_features=256, bias=True)
    (8): Linear(in_features=64, out_features=256, bias=True)
    (9): Linear(in_features=64, out_features=256, bias=True)
    (10): Linear(in_features=64, out_features=256, bias=True)
    (11): Linear(in_features=64, out_features=256, bias=True)
    (12): Linear(in_features=64, out_features=256, bias=True)
    (13): Linear(in_features=64, out_features=256, bias=True)
    (14): Linear(in_features=64, out_features=256, bias=True)
    (15): Linear(in_features=64, out_features=256, bias=True)
    (16): Linear(in_features=64, out_features=256, bias=True)
    (17): Linear(in_features=64, out_features=256, bias=True)
    (18): Linear(in_features=64, out_features=256, bias=True)
    (19): Linear(in_features=64, out_features=256, bias=True)
    (20): Linear(in_features=64, out_features=256, bias=True)
    (21): Linear(in_features=64, out_features=256, bias=True)
    (22): Linear(in_features=64, out_features=256, bias=True)
    (23): Linear(in_features=64, out_features=256, bias=True)
    (24): Linear(in_features=64, out_features=256, bias=True)
  )
  (gru2): GRU(256, 64, batch_first=True)
  (Wk2): ModuleList(
    (0): Linear(in_features=64, out_features=256, bias=True)
    (1): Linear(in_features=64, out_features=256, bias=True)
    (2): Linear(in_features=64, out_features=256, bias=True)
    (3): Linear(in_features=64, out_features=256, bias=True)
    (4): Linear(in_features=64, out_features=256, bias=True)
    (5): Linear(in_features=64, out_features=256, bias=True)
    (6): Linear(in_features=64, out_features=256, bias=True)
    (7): Linear(in_features=64, out_features=256, bias=True)
    (8): Linear(in_features=64, out_features=256, bias=True)
    (9): Linear(in_features=64, out_features=256, bias=True)
    (10): Linear(in_features=64, out_features=256, bias=True)
    (11): Linear(in_features=64, out_features=256, bias=True)
    (12): Linear(in_features=64, out_features=256, bias=True)
    (13): Linear(in_features=64, out_features=256, bias=True)
    (14): Linear(in_features=64, out_features=256, bias=True)
    (15): Linear(in_features=64, out_features=256, bias=True)
    (16): Linear(in_features=64, out_features=256, bias=True)
    (17): Linear(in_features=64, out_features=256, bias=True)
    (18): Linear(in_features=64, out_features=256, bias=True)
    (19): Linear(in_features=64, out_features=256, bias=True)
    (20): Linear(in_features=64, out_features=256, bias=True)
    (21): Linear(in_features=64, out_features=256, bias=True)
    (22): Linear(in_features=64, out_features=256, bias=True)
    (23): Linear(in_features=64, out_features=256, bias=True)
    (24): Linear(in_features=64, out_features=256, bias=True)
  )
  (gru3): GRU(256, 64, batch_first=True)
  (Wk3): ModuleList(
    (0): Linear(in_features=64, out_features=256, bias=True)
    (1): Linear(in_features=64, out_features=256, bias=True)
    (2): Linear(in_features=64, out_features=256, bias=True)
    (3): Linear(in_features=64, out_features=256, bias=True)
    (4): Linear(in_features=64, out_features=256, bias=True)
    (5): Linear(in_features=64, out_features=256, bias=True)
    (6): Linear(in_features=64, out_features=256, bias=True)
    (7): Linear(in_features=64, out_features=256, bias=True)
    (8): Linear(in_features=64, out_features=256, bias=True)
    (9): Linear(in_features=64, out_features=256, bias=True)
    (10): Linear(in_features=64, out_features=256, bias=True)
    (11): Linear(in_features=64, out_features=256, bias=True)
    (12): Linear(in_features=64, out_features=256, bias=True)
    (13): Linear(in_features=64, out_features=256, bias=True)
    (14): Linear(in_features=64, out_features=256, bias=True)
    (15): Linear(in_features=64, out_features=256, bias=True)
    (16): Linear(in_features=64, out_features=256, bias=True)
    (17): Linear(in_features=64, out_features=256, bias=True)
    (18): Linear(in_features=64, out_features=256, bias=True)
    (19): Linear(in_features=64, out_features=256, bias=True)
    (20): Linear(in_features=64, out_features=256, bias=True)
    (21): Linear(in_features=64, out_features=256, bias=True)
    (22): Linear(in_features=64, out_features=256, bias=True)
    (23): Linear(in_features=64, out_features=256, bias=True)
    (24): Linear(in_features=64, out_features=256, bias=True)
  )
  (softmax): Softmax(dim=None)
  (lsoftmax): LogSoftmax(dim=None)
)

2022-12-09 22:06:35,746 - ===> Model total parameter: 2092416

2022-12-09 22:06:37,198 - Train Epoch: 1 [0]	lr:0.00000	Accuracy: 0.0156	Loss: 5.580593
2022-12-09 22:06:55,249 - Train Epoch: 1 [50]	lr:0.00014	Accuracy: 0.0391	Loss: 5.018142
2022-12-09 22:07:00,568 - Starting Validation
…
